models/model1.pt (torch, 606826 bytes, 26 tensors)

inputlay.0.weight f4 [20, 6]
00000000: 7079 5bbe 7b94 b63e 23b4 4a39 eb0d 09bf
00000010: 4d5e 56be 6da1 8f3e ebba ec3e afa3 f7bd
00000020: aa1a ffbe b2ff 87be 0bd6 84be 2f66 61be
00000030: 3c47 e2be d1f2 dcbd fd44 6d3b 6f1b 49be
00000040: 9dfc abbd 270f 80bd bf26 be3e 82d2 abbd
00000050: afa7 9fbe 7d58 973e ea0e e2be c042 1dbc
00000060: d7cc 4dbe b9b1 183f 1dce 98be 6067 b83e
00000070: f59d 573c 406a b5be 86fb d63c 365f 0c3f
00000080: 1f44 1fbf 8d02 0fbe e46a 6aba 2c4d bb3e
00000090: 8b38 4abe d7e9 ca3e 6ab8 143f 6367 f7be
000000a0: 125d 91be 3271 6f3e d3a9 69bd a25c 08bf
000000b0: 07cb c5be 0300 883e 096b b03e d56f dbbe
000000c0: fde8 ca3d f601 b2be 1d04 b1be 62ba 823e
000000d0: 6f51 9dbe 8a33 153f 864b 85be b144 be3e
000000e0: 6449 bebd 5082 ae3d 2510 8cbd f4bd f0bd
000000f0: c1cc f1be f3c3 913d 01ce f73e d097 8d3e
00000100: 5121 903e ebaf 853e 81b3 0abf a988 033f
00000110: a3f7 5f3e a6ca 6dbe 15cd d33d 5353 a33d
00000120: cca9 50be afdd 92be b6d7 bc3e 7853 f63e
00000130: ffb3 8f3e d4e5 23bd 5788 bf3e d5b5 bd3d
00000140: 3281 503e 1a8f b63e b9c9 58bd 94d0 553e
00000150: c300 a7be 8f22 b53e 279b 943d f07d 793e
00000160: c556 0c3f 8a14 aa3b cdd1 27bd b038 f1be
00000170: c34a 11bf 6021 31bc dabe 9f3e 1991 043e
00000180: a28c 88bd cf7b 7ebe cfe7 1c3f f630 67bc
00000190: 502a 523e ceb1 2fbe 9881 3f3e 8462 7e3d
000001a0: 5d52 253f bf22 cabe e33c 55be fc6a 23bf
000001b0: 7133 41bd 42b0 e83e ca7f e93e e3d2 e73b
000001c0: 87e1 92be 20f3 23be 7831 883d 4eff d23d
000001d0: 8507 a0be 1eee d0be 1a4b 1f3f 2b4a fa3d
-0.21433043 0.35660157 0.00019331327 -0.5353686 -0.2093441 0.28052846 0.46236357 -0.12091767
-0.4982503 -0.26562268 -0.25944552 -0.22011636 -0.44194973 -0.10788501 0.003620445 -0.19639371
-0.083977915 -0.0625289 0.37138936 -0.083897606 -0.3118262 0.295597 -0.44152004 -0.009598434
-0.20097671 0.59646183 -0.29844752 0.3601637 0.0131602185 -0.35432625 0.026242983 0.5483278
-0.6221332 -0.13965817 -0.00089423195 0.36582315 -0.19748132 0.3963153 0.58093894 -0.48321065
-0.2839132 0.23383024 -0.057046723 -0.53266346 -0.3863146 0.2656251 0.3445666 -0.4285876
0.0990772 -0.3476712 -0.3457345 0.25532824 -0.3072619 0.5828177 -0.26034182 0.37161782
-0.09291342 0.08520949 -0.06839017 -0.11754981 -0.47226527 0.071174525 0.48399356 0.27654886
0.28150418 0.26110777 -0.5418015 0.513804 0.2187181 -0.23221835 0.10341851 0.07974877
-0.20377272 -0.28684756 0.36883324 0.48110557 0.28067014 -0.040014103 0.37408707 0.09263197
0.20361784 0.35656053 -0.052926753 0.20880347 -0.3261777 0.3537793 0.072561555 0.24364448
0.548199 0.0051904367 -0.040971566 -0.47113562 -0.567547 -0.01081118 0.31200296 0.12945975
-0.066674486 -0.24851917 0.6129121 -0.014110794 0.20523953 -0.17157671 0.1870178 0.06210567
0.645788 -0.39479634 -0.20824008 -0.6383512 -0.0471682 0.45446974 0.45605308 0.0070747
-0.2868769 -0.16010714 0.066500604 0.10302602 -0.31255737 -0.4080667 0.6222397 0.12221178

inputlay.0.bias f4 [20]
00000000: 05a5 3dbe dd68 61bd 7f77 d13e ae0d a8be
00000010: 4cc7 843e 31ea debc 46a5 713e 1426 e4bd
00000020: 62da 5d3d 5c75 8a3e a0de 903d c6a6 c1bd
00000030: f596 223e ed83 c9be 0920 69be b351 9abd
00000040: cb9c 8dbe f5f4 0a3e 8dec d6be 0a71 3a3d
-0.18519981 -0.055031646 0.4091148 -0.32822937 0.259333 -0.02721128 0.23598203 -0.11140075
0.054163344 0.27042663 0.07073712 -0.09455638 0.15877898 -0.39358464 -0.22766127 -0.07535114
-0.27658686 0.13570006 -0.4197735 0.04551796

hiddenlay.0.weight f4 [50, 20]
00000000: ef8f 50be 8ed9 cd3d bb46 7fbd da90 61be
00000010: 9b50 a9be 5587 bebe d030 1b3e 33ad ea3d
00000020: 971d 18be 2f4c a4be cb35 c23d ed43 4ebe
00000030: ad83 51be 3e87 b5bd e422 f5be ac63 543e
00000040: 171e f5bd 2531 393e 8826 a9be b17d 32be
00000050: bc9f 9fbe 9f62 913e f127 d13d 8ef8 503e
00000060: 642a fe3d 4f5f 0d3e 62fc 5fbe 7566 23be
00000070: 38c9 5dbe 60a2 08be 197a 3dbd e10b efbd
00000080: f60f 6fbc 17d1 4e3e 577a 943d b5bb 62bd
00000090: 7be5 b5bd 582c ae3e 9a56 a2bd 0759 c83e
000000a0: c6c4 28be ac29 01bd 4404 9fbe a246 603e
000000b0: 3716 d73d 4fa6 5ebd bb95 9c3e ece3 95be
000000c0: dcec 34bd 3404 6f3e d30f 513e 0b0a bb3e
000000d0: 0e27 063e 1f15 bdbd cde8 27be bd0f 9dbe
000000e0: 2284 823e 9afc d53d 5c3b 4b3e 86f8 4fbe
000000f0: b7ff 64be 1552 60be 4e17 0abd 560c fe3b
00000100: 358f 5d3d e3b2 0d3e 5677 08bd 890d 32bd
00000110: 9cf8 423e a59c 39be 1e03 83bd 7d34 1b3e
00000120: aab5 263c 8caa be3e 40c6 033e b5d2 54be
00000130: b724 14be 2f67 5cbe ba3e 14be b984 b03d
00000140: e012 943e 39aa adbe df8d 583e 4f5a b13c
00000150: 69b5 db3d 81e4 0fbe 0260 a7bd c2b7 983e
00000160: 4d7d 603e 3f2e 18be 801c 403e 5eb2 173e
00000170: 860f 983e b2ea 0dbe 1b95 5c3e b148 b7bd
00000180: e46f 253d 2237 ccbd b399 40bc 02b3 2cbf
00000190: 951e 8dbd 8df7 883e ac75 22be 564a bebc
000001a0: ed9a 443e b1a2 58be 41d8 d9be 1dd8 8b3e
000001b0: 94f3 223e 6de8 8c3d 7572 4bbd 33e6 4fbe
000001c0: 5f52 4e3e 44e9 363e 0b45 7e3e fb36 a93c
000001d0: f23c 24bd 11ff c73c 6ca9 f1bd 4983 00bf
000001e0: f3cd d6bd 3e28 03bf 69ab 21be 7137 c1be
000001f0: 18dd fbbd c96a e8be 26fd b8bd 7085 c13d
00000200: 53b9 d7be bc0e 353e 3f62 bb3d 7e4a 713e
00000210: cfc2 543e 37ae 25be 0e9d 6f3d 3d08 793c
00000220: 65e6 55bd 3880 563e 22f8 c93e 66dc 253e
00000230: 082b 38bc 6095 8e3e d196 09bf fd0e a8bd
00000240: 708a ea3d 9cae 343e 4142 0c3e 309f 39be
00000250: 09cb b73e 9019 cdbd c7e6 1e3d cc36 5b3d
00000260: b6a2 80be 066c bbbd 61d1 dcbe fe30 863e
00000270: f428 783c abc8 f3be 782e c4be 25a6 c53d
00000280: 8ebf 21be 4d1e 9bbe 20e4 8d3d eea4 09be
00000290: 5bc0 35be 12d8 fe3d e3f9 3d3e cefb c53d
000002a0: 7227 c1be 32e6 463e 7af5 8a3e 3339 c03e
000002b0: 2f7c bdbd c084 a33e f207 6e3e 508a 88be
000002c0: d6ef 243e ea6b abbe 1e42 003f 3382 143e
000002d0: 6915 0cbd db5a 463e e794 26be d6ab 353e
000002e0: d885 ae3d c2f0 3a3e 5bb8 aebe 69f6 293e
000002f0: f30a 61be d882 06be 47c4 c03d d8c8 88be
00000300: bb9b e5bd 944c b3bd edcd bcbe 6d1e b9bc
00000310: 8606 0f3e 93f8 cabd e50c 85be e628 703e
00000320: 2e62 25be 16f0 453e c27f 1a3f 8afc 4e3e
00000330: 57ce 8ebc 8e2c 75be b58e 39be 387f 9b3e
00000340: 4260 443e ee40 fd3c ef97 cabe fa92 09bf
00000350: bf1b 883d 9872 3abf 744b 81bd a303 ea3e
00000360: 20bd a43e cb02 813d 1573 22be 61dd 82be
00000370: 92c0 9b3a d9c9 0f3e d3ad 633e 92b2 c63c
00000380: 4ecc f9bd b6f1 13be 6abf 10bd 3df8 bebc
00000390: 3c5d d53d 670b c4bd 6ee6 d9be b905 58be
000003a0: e040 b23d fb0c eebc 8afb 0ebf 4421 a7bd
000003b0: 8db1 d73b bc24 70bd 250b b9be ea6e 1fbe
000003c0: 13d6 463e e827 1dbe 567b 143f e7ac 49be
000003d0: 71f4 32be 015d 58bd fb80 78bc e46b dd3e
000003e0: c4b3 e0be c060 863e 586f ca3c 0abf 44be
000003f0: b024 193e 24f5 33be fb6e 24bf a4e1 823d
-0.20367406 0.10051261 -0.062323313 -0.22027913 -0.3306931 -0.37212625 0.15155339 0.114588164
-0.14855038 -0.32089373 0.094829164 -0.20143099 -0.20460387 -0.08863686 -0.47878182 0.20741147
-0.1196863 0.18085153 -0.3303721 -0.1743076 -0.31176555 0.28395554 0.10212696 0.20407316
0.12410429 0.13805889 -0.2187362 -0.15957053 -0.2165879 -0.13343191 -0.04625902 -0.116721876
-0.014591208 0.20196949 0.07249897 -0.055354793 -0.088816606 0.34018207 -0.07926674 0.39130422
-0.16481313 -0.031533882 -0.31057942 0.21901944 0.10502284 -0.054357823 0.30582985 -0.29275453
-0.0441712 0.23341447 0.20416193 0.365311 0.13100836 -0.09232544 -0.163974 -0.3067607
0.25491434 0.104485705 0.19846863 -0.20309648 -0.22363172 -0.21906312 -0.03371363 0.0077529354
0.05409165 0.13837771 -0.033316933 -0.04346994 0.1904015 -0.18126161 -0.06397079 0.15156741
0.010175148 0.37239492 0.12868595 -0.20783503 -0.1446713 -0.21523736 -0.14477053 0.08619065
0.2892065 -0.33918932 0.2114787 0.021649508 0.107279606 -0.14052011 -0.08172609 0.29827696
0.21922798 -0.14861391 0.18760872 0.14814135 0.29699343 -0.1385906 0.21541254 -0.08949412
0.04038991 -0.09971453 -0.011755395 -0.67460644 -0.06890599 0.26751366 -0.15865201 -0.023228806
0.19199724 -0.21155812 -0.425478 0.2731332 0.1591323 0.06880269 -0.0496697 -0.20302658
0.2014861 0.17862421 0.24831025 0.0206561 -0.040097184 0.024413617 -0.11799893 -0.50200325
-0.104885004 -0.5123328 -0.15788044 -0.3773761 -0.1229803 -0.4539397 -0.09032659 0.09449279
-0.4213358 0.17681402 0.09149598 0.23563573 0.20777439 -0.16179739 0.05849939 0.015199718
-0.052221674 0.20947349 0.39447123 0.16197357 -0.011240728 0.2784834 -0.5374575 -0.08205984
0.11452186 0.17644733 0.13697149 -0.18127131 0.3589709 -0.10014641 0.038794305 0.053519055
-0.2512414 -0.09151463 -0.43128493 0.26209253 0.015146483 -0.47614035 -0.38316703 0.0965083
-0.15795729 -0.30296555 0.06928277 -0.13441822 -0.17749159 0.12443556 0.18552355 0.096671686
-0.37725407 0.1942375 0.2714041 0.3754364 -0.09252202 0.31937218 0.23245218 -0.26668024
0.16107115 -0.3348077 0.50100887 0.14502792 -0.034200106 0.19370596 -0.16267739 0.17741331
0.085216224 0.18255904 -0.34125027 0.16597904 -0.21976833 -0.1313585 0.09412437 -0.26715732
-0.11211344 -0.087548405 -0.3687586 -0.022597516 0.13967332 -0.09910693 -0.259864 0.23453102
-0.16150734 0.19329867 0.6035119 0.20213524 -0.017432375 -0.23942778 -0.18120845 0.30370498
0.19177344 0.03091475 -0.3956904 -0.53739893 0.06645917 -0.72831106 -0.0631322 0.457059
0.3217554 0.06299361 -0.15864213 -0.25559524 0.0011882952 0.14041843 0.22234277 0.02425507
-0.12197171 -0.14447674 -0.035338797 -0.023311729 0.10418174 -0.09572487 -0.42558616 -0.21095933
0.0870378 -0.029058924 -0.5585257 -0.08160642 0.006582445 -0.058628783 -0.36141315 -0.15569654
0.194176 -0.15347254 0.58000696 -0.19694863 -0.1747606 -0.05282307 -0.01516747 0.43246377
-0.4388715 0.2624569 0.024711296 -0.192135 0.14955401 -0.17573982 -0.6423184 0.06390694

hiddenlay.0.bias f4 [50]
00000000: 5085 0e3e cd58 42bd 56b1 03bd 3abd c23c
00000010: 3044 643d e486 d63d fb45 973b 7386 693d
00000020: 0a90 7fbe e979 453e 44ad 7f3d 42ff 463e
00000030: 59e7 20be cecb 003d bc7c 283e 9af3 983d
00000040: f200 b23d 6fe9 05be 7b9a c4bd ff2f 0fba
00000050: 2dcc 113e ff6c b1bd 32fe 1a3e 0590 4bbd
00000060: dd52 8dbc 64c9 cb3d 7ee7 d43c 6ad9 463e
00000070: afe1 f13d 5ca8 c43c 4398 2bbd 5e21 86bd
00000080: 60ec d83b 4ec9 493e ea7b 863b ba3a 8ebd
00000090: 3977 4c3e f6c0 3dbe 88bf 75bd 1b05 493e
000000a0: ba8d 32bd c97b d93d 5952 59be 7d98 22bd
000000b0: 375f e5bc b073 b83c 7ae1 193d e7e5 4a3c
000000c0: b6ca 763e 4c99 2f3e
0.13918042 -0.04744797 -0.032151543 0.02377187 0.05572909 0.10474947 0.0046164966 0.057012986
-0.2495729 0.19284786 0.0624211 0.1943331 -0.15713252 0.031444363 0.16453832 0.07468338
0.086915866 -0.13077329 -0.09599777 -0.0005462169 0.14238043 -0.086633675 0.1513603 -0.049697895
-0.017251426 0.099505216 0.02598929 0.19418874 0.11810624 0.024006061 -0.041893255 -0.06549333
0.006619975 0.19705698 0.004104127 -0.06944795 0.19967355 -0.1853064 -0.05999711 0.19630854
-0.043592192 0.10619313 -0.2122282 -0.039696205 -0.027999504 0.022516102 0.037568547 0.012383915
0.24100766 0.17148322

hiddenlay.2.weight f4 [80, 50]
00000000: 6a00 253e c903 cd3d ac6d 73be 3b9c 943d
00000010: 9418 403e 7fa5 443e abac 923b 2791 80bd
00000020: 76f9 01be ad7c 083e 80b2 613e 29ce d43d
00000030: 1e2a 343e ce6a 4a3e 220a a9bc 860d 733e
00000040: 8ef0 3a3d dc8f 5a3d 62cf 27bf 3bf7 4a3e
00000050: 6b85 84bd 32d3 ec3c c207 653d 23f6 a1be
00000060: ec3a e3bd ced9 32bd fe4d 95bd a278 08bd
00000070: 8354 ce3d faf2 463e 2883 0ebe a9be cfbb
00000080: 6b6c f43d 7db8 8d3d 1242 7abe d02b 213e
00000090: 705e 7d3e f712 d03e 81b1 103e 0c8f 1e3f
000000a0: a9d1 b2be 25cf 93be 1cd3 b6be 7253 413e
000000b0: b636 13be b63c 1bbd a533 193e 555a 6f3d
000000c0: fd15 2f3e 8b8b f33b c516 7e3d 9e1f d4be
000000d0: c102 973d 1995 9f3e 052e 45bc 2e2a bf3c
000000e0: ebb4 6bbe 148e af3e 26f4 323e 0108 79be
000000f0: 6159 0cbe cf68 203e 37ea 3b3d 63fc 32be
00000100: bd03 a0be 1f7d 323d a883 0e3d f66a babe
00000110: 9780 ed3e f026 05be 93df 533e cc86 67be
00000120: 98c6 903d 3d02 78bd 4e9a d1be a3ff 59bb
00000130: 9bfa 833e 0d6b 9a3e ddb4 f0be d8d3 29be
00000140: f235 bbbe 6f7e 4dbe 9a45 543d fd4a 703d
00000150: e293 093f cbfc 4bbe f108 db3d 54c5 72be
00000160: 09fb 903d f14e ad3e 3907 8cbd b88e d7bd
00000170: fb97 2b3e daaf 4e3d 8cb1 7fbe 48fb 9b3e
00000180: 038a 36bd f57a 623d f5ad 163e ed24 c93d
00000190: 36b6 6e3d 7de5 ebbb 4015 ddbe f6b1 c5bd
000001a0: c65e 123e d7ee ecbd 9da9 16bd c9eb 65be
000001b0: 15d5 063e 9289 eabd 5981 c63e 7487 aaba
000001c0: 5ffa 563e 2d8d 44be 8c84 80be b521 833e
000001d0: 867c a3be 2f8a 8c3d 3432 83be 1102 63bd
000001e0: 33cb 843e 72d0 413e 6747 ea3d 6f20 91bd
000001f0: b2a6 0bbf ee57 4cbe 16f9 7ebe bce8 303d
00000200: 948b 2f3e 56d4 cabc 3fd2 003b aa20 d4bd
00000210: b064 b7be 7fd2 9a3e ffc8 9fbe f33f 453d
00000220: 350f 2dbd b713 52be 875c f13c 76a6 b33e
00000230: 4ad5 8ebd 6089 353d b9e1 3abe bde3 743b
00000240: d449 8fbe f99c 1cbf 865c 1f3e 5075 4c3e
00000250: 8748 9a3d d34b 813e 826d c0bd 687e c73d
00000260: 1b8a e4bd 92aa 253d 69ff 0cbe f79f 33be
00000270: e618 f8be 59e7 d1be da7f 9f3e b9b2 0a3c
00000280: 3c81 153f 786b c83d c00a 6dbe b5d6 7bbe
00000290: e077 5dbd a23c 9abe 53aa d2bd c09e acbc
000002a0: 1cfc 203e c8ff c83d 32a8 6dbe f547 0b3e
000002b0: f3b5 75bd b24a 0f3e d121 00be ad46 56bd
000002c0: f6b3 73be 4fe5 81bd e2a3 33be ea28 bb3e
000002d0: 1e11 0ebd 5279 debc 6a11 8c3e 6e26 783c
000002e0: 261f abbd 0965 0cbe bb07 b3bd bac8 81bd
000002f0: 71e7 d73d f696 bebc eaef 81be 4733 0fbe
00000300: 2dda 3dbe 5c64 09be 1c3f 093e b8c5 803e
00000310: 5741 3ebe 2941 92bd 5bcb 113e c10c 9fbe
00000320: e09b 923e e088 613d 9577 c23d ceda edbe
00000330: 95d4 1dbe 7fb8 01bc 6522 503d 41af 9bbe
00000340: cf5b 453d ad2b a7bd 022a 9bbe 5d22 38be
00000350: 160e 8abe b619 c33d f19c bd3e ab72 2cbe
00000360: 6a61 2b3e cf5f 923e 900d cdbd 4c25 35bd
00000370: a6b7 1f3d 3baf 653e c455 babe e98e 2b3e
00000380: 4e92 133e 6f20 373c a206 a5be 8f2f 013e
00000390: f894 393b a3c0 13be 52ad 063e 5f36 93be
000003a0: 6459 5ebd 14d1 88be 9f7b 46be 20d8 b3be
000003b0: 2d9c 1dbe 6cda c7be c5a4 b5be 5df1 b4be
000003c0: 8049 df3d a95a d5bc cd00 003e 6a9a 47bd
000003d0: 53b3 2d3e 6323 7fbe 3dc9 bf3d 569c ea3d
000003e0: 03b9 3c3e 3139 0bbf ed8e 1ebd 26e6 133e
000003f0: 6413 bcbc fcc4 95bd 5390 173e 2f6c 1e3e
0.16113439 0.100104876 -0.23772305 0.07256361 0.18759376 0.19203757 0.00447615 -0.062776856
-0.12692818 0.1332881 0.22040749 0.103908844 0.17594191 0.19767305 -0.020634715 0.23735628
0.045639567 0.05335985 -0.65550816 0.19820873 -0.0647076 0.0289093 0.0559156 -0.316331
-0.11095223 -0.043664746 -0.072902665 -0.03331817 0.10074713 0.19428626 -0.1391722 -0.006339867
0.119347416 0.06919954 -0.24439266 0.1573937 0.24743056 0.4063947 0.14130212 0.6193702
-0.34925583 -0.28868976 -0.3570794 0.18879488 -0.1437634 -0.037899695 0.14961107 0.058435757
0.17098232 0.0074324063 0.062033433 -0.41430372 0.07373572 0.3116844 -0.012034898 0.023335543
-0.23018233 0.34288085 0.17475948 -0.2431946 -0.1370597 0.15664981 0.04587766 -0.1747909
-0.31252852 0.043576356 0.034793526 -0.3640973 0.4638717 -0.13003135 0.20690756 -0.22610015
0.07069129 -0.06054901 -0.40938038 -0.0033263944 0.25777134 0.30159798 -0.47012988 -0.16584718
-0.36564595 -0.20067762 0.05182419 0.058665264 0.53741276 -0.19920652 0.10695065 -0.23708087
0.07079131 0.3384929 -0.06837315 -0.10525268 0.16757195 0.050460674 -0.24970073 0.3046515
-0.044565212 0.055293042 0.14714797 0.09821496 0.05827924 -0.007198988 -0.43180275 -0.09653084
0.14293966 -0.115689926 -0.03678285 -0.22453226 0.13167222 -0.11452021 0.3877056 -0.0013010339
0.20993946 -0.1919448 -0.25101125 0.25611654 -0.3193094 0.06862294 -0.2562424 -0.055421893
0.2593628 0.18927172 0.114394 -0.07086264 -0.5455123 -0.19955418 -0.24899706 0.043190703
0.17143089 -0.024759453 0.0019656566 -0.10357793 -0.35819006 0.3023872 -0.31208035 0.04815669
-0.04225083 -0.20515333 0.029463066 0.35087937 -0.069742754 0.044320464 -0.18250169 0.0037367188
-0.27986014 -0.6117702 0.15562639 0.19966626 0.07533365 0.25253162 -0.09395887 0.09740907
-0.11159154 0.04044587 -0.13769306 -0.1754149 -0.48456496 -0.40996817 0.3115223 0.008465462
0.5840032 0.09786123 -0.23148632 -0.24593623 -0.0540694 -0.30124384 -0.10286393 -0.021071792
0.15721172 0.098144114 -0.23208693 0.13601668 -0.059987973 0.13993338 -0.125129 -0.052313495
-0.23799118 -0.06342565 -0.17542985 0.36554652 -0.034684293 -0.02715746 0.27357036 0.015145881
-0.083555505 -0.13710417 -0.08741709 -0.06337114 0.10542191 -0.023265343 -0.25378352 -0.13984405
-0.18540259 -0.1341719 0.1340298 0.25150847 -0.18579613 -0.071413346 0.1423773 -0.31064418
0.28634548 0.055062175 0.09495465 -0.46455997 -0.15413125 -0.007917522 0.05081405 -0.30407146
0.04818326 -0.08162627 -0.30305487 -0.17981859 -0.26963872 0.09526388 0.370338 -0.16840617
0.1673638 0.2858872 -0.100123525 -0.044225022 0.0389935 0.22430126 -0.3639356 0.16753735
0.1441128 0.011177166 -0.32231623 0.12615798 0.0028317552 -0.14428954 0.13152054 -0.2875242
-0.05428447 -0.26722014 -0.19383095 -0.35125828 -0.15391608 -0.3903383 -0.35477272 -0.35340396
0.10902691 -0.026044207 0.12500305 -0.048731245 0.16962938 -0.24915843 0.09364555 0.114556
0.18429951 -0.5438414 -0.038710523 0.14443263 -0.022958465 -0.073129624 0.14801149 0.15470956

hiddenlay.2.bias f4 [80]
00000000: 90ff f738 0323 47bc fc06 d1bc fe0e ccbc
00000010: f968 ddbc 4a7a c7bd a71d 09be 528c 18bc
00000020: c7c8 753d bea4 83bc d382 cc3a aa54 2ebe
00000030: 93d2 9f3d 1248 80bd 99fe b83d 499e 13be
00000040: 2f96 adbd 1611 0fbd 6d32 22be 5611 d7bb
00000050: a153 6e3d 7587 06be 20ed 463b 313b b33d
00000060: 25f7 a5bd 3b7a 86bd 8a2f 85bd 8673 e63c
00000070: 4da1 943c ffa1 143e 01fb e4bc 73df d4bd
00000080: 040d 54bd f5ab e63b bb20 88bd 1a06 ce3d
00000090: 4b5b 773d 1be2 ddbd cf9a 553c 87cf 8dbc
000000a0: abd3 10be 78b5 67be cd01 a73d 1eb8 b03d
000000b0: 2246 253d 061f d6bc 1697 c23d ee26 f83c
000000c0: 9f64 cf3a 9b6f afbd d210 20bd 8256 88bd
000000d0: 6fd3 293d bd69 11be 58d7 153d 405c 31bc
000000e0: 6def 30bd f567 0abe d689 cebd 5ad4 7abc
000000f0: d4c9 1dbc 2851 ddbd a3ed 1bbc fc11 993d
00000100: 3fa0 24bd d5f9 73bd 41da ad3d 854d 63be
00000110: 38a3 a43b 83f9 10be cbe5 c93d 6f21 81bd
00000120: 41d4 683d 98c2 90bb 30fb 523d e4e3 0dbe
00000130: bf89 033e b2e7 4dbd 1343 543d 0e1a 06bd
0.0001182548 -0.012154344 -0.025516026 -0.024909493 -0.027027594 -0.09740122 -0.13390218 -0.009310799
0.06000593 -0.016069766 0.0015602953 -0.17024484 0.07803836 -0.06263746 0.09032936 -0.1441585
-0.08475911 -0.034928404 -0.15839548 -0.006563346 0.058185223 -0.1313761 0.003035374 0.08751524
-0.0810378 -0.06566282 -0.06503208 0.028131258 0.01814332 0.14514922 -0.02795172 -0.10394182
-0.051770225 0.007039542 -0.06646868 0.100597575 0.060389798 -0.10834142 0.0130373975 -0.01731087
-0.14143245 -0.22627819 0.0815464 0.086288676 0.040350087 -0.02613784 0.095014736 0.030292
0.0015822834 -0.08566209 -0.03907854 -0.06657125 0.041461404 -0.14200492 0.03658232 -0.010825217
-0.043197084 -0.13516219 -0.10084884 -0.015309418 -0.009630639 -0.10806495 -0.009517106 0.07474133
-0.040191885 -0.05956443 0.08488894 -0.2219754 0.00502434 -0.14157681 0.09858283 -0.06305205
0.056843046 -0.0044177286 0.051509082 -0.13856465 0.12845515 -0.05026979 0.05182178 -0.03273969

hiddenlay.4.weight f4 [110, 80]
00000000: 65a4 c0be 1f81 6bbf e194 92be f620 13be
00000010: c0e4 a1be 93c5 da3c b87a 56be 38f7 6abe
00000020: 1f86 06be d24d fe3d 57f5 7d3d b0df 01bf
00000030: 142d 25be 6588 20be b2ec 953b faa5 163e
00000040: 5e4c e0bc a84e c9bb 36f7 40be 2cbb 3abe
00000050: 38ff b4be 74c6 24bd 9dc9 a9be 3225 a6be
00000060: 80b9 c63b cb9e 8d3d 5366 753e 844c 59be
00000070: 486b 0a3e 9442 453d f54b 13be b28f d13d
00000080: c2a6 7bbe 1ef0 2cbe 2c5b 383d 4910 333d
00000090: d921 2abe b300 9abe 1037 753d 5795 91be
000000a0: 2164 40be dada ae3c 2b2c f23d 15e7 e2bd
000000b0: 95f4 113e 1374 2ebe 5557 c0bb 6161 31be
000000c0: ec40 1ebd a68a 8e3d 2c84 f4bb 4f94 873d
000000d0: af5e 36bd 611c bcbd 050c 1abf b47e 68be
000000e0: dd8d 27be c5ba 813e c242 95bc ed52 873e
000000f0: 58d1 2fbe 9dd1 8a3e e5a9 c1be 5451 34be
00000100: 65bd 15bc 674d 2cbe 706a cf3d e44e 58be
00000110: 6617 9abe be4b bdbe f30d 38bb 4556 97bd
00000120: e68a 9abd 4883 10be 1b6d 963c edb2 91bd
00000130: 134f cebd 0465 d3bb 428e f63c 6cdf 79bd
00000140: 580b 32be 2af8 d23d f431 08be daf1 643c
00000150: 8e34 e3ba 6316 843e f98a 773e e14d bbbd
00000160: 9d76 67be 60f3 1d3e f609 983d 5ca8 9bbd
00000170: 5a2e 183e 9470 973d 48ea f0bc 1bd2 633e
00000180: ad9d b13e da49 ab3d 71ce b43c 9c02 15bc
00000190: 5632 8f3e 4d43 263e 45e9 47be bd4f 1bbe
000001a0: 010a c6be cc87 42be d0cc 363e 64b0 a5bd
000001b0: 2154 a2bd 21cc 8ebd dfac 1abe 5d25 5abe
000001c0: 316f bebe 79ef 6c3d bcd9 283e 3756 28be
000001d0: 8d60 72be f611 d6be 2fb0 31bd 00da 22be
000001e0: cabd ba3d af85 0e3e 5d64 abbc 1e2b 7fbd
000001f0: c93f fabc f511 883e e69f 9bbe 2ded 4bbd
00000200: 3ece 0fbd fd21 333e 1ff3 d43e 93ab d63e
00000210: bb67 293d efb7 7c3d 8aac 55bc 6134 81be
00000220: 493e 313e 36b6 963e 0a2f 423b 8252 8dbd
00000230: 51bc 413e a07e c7be 0556 823d 8742 f7bd
00000240: 9d25 843d 4007 4bbe 9c60 323d fca4 a33e
00000250: 76c9 0e3d 386c eabc 5b3e 69be 2f52 343e
00000260: 6408 923c 2518 423d 50e5 323e 5d7e a8be
00000270: 1e70 55be 9b31 09be 69fe 23be b470 b23b
00000280: fc65 823d b771 32bd 3bd8 523d 2201 6dbe
00000290: e9c8 02bf 1506 6c3d caea f1bd ac4a adbd
000002a0: 009a 78be 0d4e e93c e826 adbb 3353 0c3e
000002b0: 9ab7 0f3e 1d07 eebc 0ae5 fdbc 028e 863d
000002c0: 0199 dbbc 1a84 7abe 8936 063e dabf c0be
000002d0: f58d b8bc 059e a9bc 55dd aabc c461 d03d
000002e0: 5bb5 203e e164 8fbe e9ce e33d 3b87 8cbd
000002f0: 70f5 ffbc ac16 75be c7a6 f73d be21 453e
00000300: a544 833d f3a5 a5bc f406 92bc 46e5 863c
00000310: f907 50be cadc a23d cb2d 1a3e 34a7 8d39
00000320: a79e 95be 1030 85be 0f58 f03d 7913 293c
00000330: a9dd 343d e748 8cbc e89b 4abd 8cef 323d
00000340: 6855 7b3d c530 25be 8b99 5abc fa68 43bd
00000350: 5a8c ecbc b154 f4bc dc0a 5d3e a5c5 0bbe
00000360: 208e da3c d6e7 373e f703 5c3d f77e 03bd
00000370: 0377 9b3d afc8 5c3d 3599 08be 4f38 25bd
00000380: 14e4 ee3d 6665 52bd 8930 05be 5bbb 1ebd
00000390: 0516 5b3e ef74 8d3c 32bc 1a3e 9ce0 183d
000003a0: bb67 b33b 406e 7c3d 97bd 0b3e a3a0 4bbd
000003b0: 7629 473b 634c 263e 2303 0d3e f5c6 91be
000003c0: 3c6a 5dbe cd87 223e 561b 003e 251a 3dbb
000003d0: 48d9 593d 255a 77bc 5e0a 043e 7fae 0dbe
000003e0: eee9 a6bd d12b d03c 50d7 a93d 3b8f dfbc
000003f0: b197 a7bd d30f 443d 70ae a53c dd88 05be
-0.37625423 -0.919939 -0.2862921 -0.14368042 -0.31619835 0.026705539 -0.20945251 -0.22945869
-0.131371 0.12417187 0.062001552 -0.50731945 -0.16130477 -0.1567703 0.0045753354 0.14711753
-0.027380165 -0.0061434098 -0.18844303 -0.18235463 -0.35350966 -0.040228322 -0.3316163 -0.32450253
0.006064594 0.06915053 0.23964815 -0.21220595 0.13517487 0.048159197 -0.14384444 0.10232486
-0.24575332 -0.16888472 0.045008823 0.043716703 -0.16614474 -0.30078658 0.059866965 -0.2843425
-0.18788196 0.021344591 0.118248306 -0.11079232 0.14253457 -0.17036466 -0.005869786 -0.17322303
-0.038636133 0.06960039 -0.007462045 0.066200845 -0.04452389 -0.091851 -0.6017459 -0.22704583
-0.1636271 0.25337806 -0.01822031 0.26430455 -0.17169702 0.27113047 -0.37824932 -0.17609149
-0.009139393 -0.16826402 0.10127723 -0.21123844 -0.30095977 -0.3697185 -0.0028084486 -0.073895015
-0.07546024 -0.1411258 0.018362572 -0.071142055 -0.10073676 -0.006451251 0.03009713 -0.061004087
-0.1738714 0.1030124 -0.13300306 0.0139736775 -0.0017334388 0.2579833 0.24174108 -0.091457136
-0.22603841 0.15424871 0.07423775 -0.076004714 0.14861432 0.073945194 -0.029408589 0.22248118
0.3469061 0.083636954 0.022071095 -0.00909486 0.2796809 0.1623661 -0.19522579 -0.15167136
-0.38679507 -0.18997115 0.17851567 -0.080902845 -0.079262026 -0.06972528 -0.15105008 -0.21303315
-0.37194207 0.057845566 0.16489309 -0.16439138 -0.23669644 -0.41810578 -0.043380912 -0.15903473
0.09118231 0.13918184 -0.02092188 -0.06229698 -0.030547993 0.265762 -0.3039543 -0.049786735
-0.035108797 0.17493434 0.41591737 0.41927776 0.04135869 0.06169885 -0.013041625 -0.25235274
0.17308916 0.2943589 0.0029630088 -0.06900503 0.18919493 -0.38963795 0.06364063 -0.12073236
0.06452487 -0.19826984 0.043549165 0.3196181 0.034860097 -0.028616056 -0.22777693 0.17609476
0.017826267 0.047386307 0.17470288 -0.32908908 -0.2084355 -0.13397829 -0.16015019 0.005445564
0.06367108 -0.04356548 0.051475745 -0.23144963 -0.51087815 0.057622988 -0.118123606 -0.08461508
-0.24277496 0.0284796 -0.005284179 0.13703613 0.14034882 -0.029056126 -0.030993003 0.065700546
-0.026806356 -0.24464455 0.13106741 -0.3764637 -0.022528628 -0.020705232 -0.020857492 0.10174897
0.15694182 -0.28006652 0.11123449 -0.06861731 -0.031244963 -0.2393443 0.12092357 0.19251153
0.06409577 -0.020220732 -0.017825581 0.016466748 -0.20315541 0.079522684 0.15056531 0.00027018192
-0.29222605 -0.2601323 0.11735546 0.010319584 0.044156704 -0.017124606 -0.04946509 0.04368548
0.061360747 -0.16131885 -0.013342272 -0.047707535 -0.028875519 -0.02982554 0.21586174 -0.13649614
0.026679099 0.17959532 0.05371472 -0.032103505 0.07591059 0.053902324 -0.13339694 -0.040336903
0.11664596 -0.051366232 -0.13006796 -0.038752895 0.21395119 0.017267672 0.15110853 0.03732358
0.005475012 0.06162858 0.13646542 -0.049713742 0.0030389703 0.16240077 0.13770728 -0.28472105
-0.21622556 0.15872116 0.12510428 -0.0028854695 0.05318573 -0.015097176 0.1289458 -0.13836096
-0.08150087 0.025411518 0.08293021 -0.027289977 -0.0818323 0.047866654 0.02022478 -0.1304049

hiddenlay.4.bias f4 [110]
00000000: bda2 8f3d e226 d5bd 592a 1ebd 7e3b 0c3d
00000010: faf6 113d 107f cebd 82d8 b03d 5069 193e
00000020: 6d8f e5bd a404 ea3c 1aa3 00be b12c 993c
00000030: 3dba f93d 972d 94bd 9734 d43d d4bc 8c3c
00000040: e5db 88bd 5524 0cbc 4d8c a8ba 16d6 ab3d
00000050: 5a70 303d 2284 8fbe 68f1 5bbe 993f 27be
00000060: f3f2 613d a94c 093e 923a 8abc 5d97 8bbe
00000070: c745 3abb 9d99 84be f5b7 b33c f876 893d
00000080: b641 4f3d 601e b0bd ccc0 13bc 3d1c 2abd
00000090: 5aa1 8d3c ffe0 73bd fb07 d53c 648e 623d
000000a0: 6b06 da3d f5a1 663d e350 a6bd a1ca 07bd
000000b0: c70b cdbd 43e6 1cbc 782d 51bc c307 d6bd
000000c0: 88b1 9cbd 79ac bebd 8846 22bd c081 eabd
000000d0: 3ee2 683d ea36 b63d 50fe 003c cf5c 3d3d
000000e0: f061 82bd 5044 d6bd 2553 a33d 65c8 68bd
000000f0: b82f 80bd 10aa c5bd 29b5 64bd 4d08 16be
00000100: 6f3c c1bd baeb 69bd d524 883d 4a7c bcbc
00000110: ddba de3c cfb8 e2bd b8fd bc3c f579 3ebd
00000120: c642 a73d 3b24 b6bd 615b edbd 1c72 4abd
00000130: df85 16be c0ee 943c 25bf 9bbb 9246 c1bd
00000140: 12bf c5bd 64b0 a3bd 441d 83bd 5637 e5bc
00000150: caa3 1c3d 93ee 8c3d 107d b83d bd5f 8bbc
00000160: a3eb 913b 50c8 4dbd 7d10 8b3d a279 2ebe
00000170: 84db 923d f398 833d 02c1 093c 761b 41bc
00000180: 9049 d53c 4a89 64be 3342 5ebd d06d aebc
00000190: 8c4c a3bd 1dc3 6dbd 04df 8c3c 52f6 253d
000001a0: cefc 18be 5af3 9a3c f182 923d 1b0c 57bc
000001b0: 4199 8fbc 650d 13ba
0.07013462 -0.10407807 -0.038614605 0.034236424 0.035635926 -0.10082829 0.086350456 0.1498158
-0.11208997 0.028566666 -0.12562218 0.018698068 0.12193725 -0.07235258 0.10361593 0.017179884
-0.066825666 -0.008553584 -0.0012859196 0.08390443 0.043075897 -0.28030497 -0.21478808 -0.16332854
0.055163335 0.1340815 -0.016873632 -0.2726392 -0.0028422938 -0.25898448 0.021938303 0.067121446
0.050599776 -0.085995436 -0.009018134 -0.041530836 0.017288852 -0.059540745 0.026004782 0.055311576
0.106457554 0.056306798 -0.08120897 -0.033152226 -0.10012012 -0.009576383 -0.012767188 -0.10450699
-0.07651049 -0.0931024 -0.039618045 -0.11450529 0.056856386 0.08897193 0.007873133 0.046231087
-0.06366336 -0.10462248 0.07974843 -0.056831736 -0.06259102 -0.096515775 -0.05583683 -0.14651604
-0.09435355 -0.057109572 0.0664765 -0.023008484 0.027188713 -0.11070406 0.023070201 -0.046503026
0.08167033 -0.08893629 -0.11589695 -0.04942523 -0.14699505 0.018180251 -0.004753011 -0.09437288
-0.096555844 -0.07992628 -0.06402066 -0.027980488 0.03824214 0.06881442 0.09008229 -0.017013425
0.004453139 -0.05023986 0.06790254 -0.17038587 0.071707755 0.06425657 0.008407833 -0.011786332
0.026036054 -0.22317997 -0.05426235 -0.021292597 -0.079735845 -0.058047403 0.017196186 0.040518112
-0.14940187 0.018914867 0.07153881 -0.013125445 -0.017529132 -0.0005609601

hiddenlay.6.weight f4 [140, 110]
00000000: e2ed 863d 65c0 ccbc a396 b83c 6260 083c
00000010: 0bf0 c03e 20b6 193e 21d7 f03b 6409 973c
00000020: 600a 0c3c 2bdc 773d 1ce0 cabe 5a41 513d
00000030: dd71 20be 164d 083e ad57 cb3c 544e 9ebd
00000040: 4a50 b1bd 7e1a a63c a8d8 123e c8dd 573e
00000050: 0fb8 48bd b4ee 8d3d 1be5 483d 2e53 00be
00000060: 47b0 1d3c 3dd8 e5bc 4fcb f7bd 9325 1bbe
00000070: 934d 5bbd 509e 49be b125 0bbe e8e7 753c
00000080: cecc 86bb 69c7 95bd 7e0a 30be f776 9e3d
00000090: 0e2f 1f3e a42e 4d3d 68b0 3ebe f48e 20bb
000000a0: 3923 ddbd 28a5 d9bd c045 04be aa2c 52be
000000b0: 8707 a03d e619 8e3e 819a dbbd 1c8b 3f3d
000000c0: df39 b53d 447c 43bd 2f89 943e 8056 063c
000000d0: 1de2 e93d 0296 64bd 6a45 3d3e bec9 ef3c
000000e0: e872 cdbd 2c1e af3d 4fd3 273e 4ef1 653e
000000f0: cfae 1d3e 5b19 07be a321 913d 7576 44bd
00000100: afd5 0abd b0eb 473e 4909 63bd 5f86 61bd
00000110: b4e1 58bd fc12 c83e dded f6bd b15d dcbd
00000120: a69c 51bd fe77 fd3c d039 363e e989 39be
00000130: f6d0 62bd 6cab 743e 8929 7b3d 5950 c3bd
00000140: fb9b 1dbe 0305 2c3e f5f7 19bd 7085 b43b
00000150: 0212 273b d130 263e 312f 27bd e715 203e
00000160: 3292 c33c 5606 97bc 4a41 bbbd d2a2 673d
00000170: 1f58 353e 29d6 33bd 39b5 db3d 6ba8 653d
00000180: c3a9 eb3c 7857 35be aed1 7d3e c005 d53d
00000190: 5c3c 143d 7666 123c c7aa 26bc 298e 8bbe
000001a0: 3d96 2cbe 8a68 423e d46f 693d 4544 10be
000001b0: 59de 213e 3c1b 2ebb 01ef f1bc a7e0 493e
000001c0: e9ed aa3e 99b2 083d d35c 2fbd 17e7 433e
000001d0: 0b05 7ebe 7335 3fbe 8e41 7b3d e4b2 35be
000001e0: ebaf fbbd 26de e23d a854 2e3d ac79 febd
000001f0: ae6e 383e 9238 71bd 3e61 0abe 3112 07be
00000200: d39e 903d 7a54 0bbe 9567 0bbd 7b4b d53d
00000210: 4ddd cf3d 695b 89bd fd46 5f3c aace f63d
00000220: 92b2 91bd 433f 863e aa6f 0dbe 09a8 913e
00000230: ddf5 debc bfa5 3abe 95c1 733d e395 b4bd
00000240: 55f2 603e a03c 9c3d 58ce c6bc 7571 2fbd
00000250: e62a 11be 83d2 86be 48ea 883c 9c70 303e
00000260: 6ab8 6dbd 8201 1bbe 0130 49be 24fc f4bc
00000270: 9dfc 143d 63ed ebbd cca2 4bbd 3314 10bf
00000280: 5204 5fbc c0b9 4dbe 9894 9cbe 1676 823c
00000290: d825 a33e c29a 16be 610b 62be be6b b5bd
000002a0: 7ee0 52bd e913 48be 9ff5 ccbd 9809 c3bd
000002b0: 81dc 78bd bfdc 88be 1bdd 64bd 1785 a5be
000002c0: 12da 023e b48d 0cbe 377f 8f3c 5113 5cbe
000002d0: 41a8 3fbe 0f1b 893c aabb 883d 992a 6ebe
000002e0: ba5a e33d b3b9 69bd 4848 d6bd 1113 ddbd
000002f0: 00af 17bc c2bd 1ebe 03da c6be 9a98 6cbe
00000300: 045d 22bd 2e70 633d 81b8 083e 1c28 6d3d
00000310: 4858 dd3d 92bd 8c3c d1ac 3cbe bfd9 a1bd
00000320: 8f43 113e e2de 243e 0e91 b1bd af2c 633e
00000330: 84c6 4fbd 1ab3 81be 4748 703e ec0c 883d
00000340: 887d 5e3e 76ef 1cbd f3dc 5bbe 6abf 21be
00000350: c922 a23e 97d0 1f3e dc65 453e 3886 0c3c
00000360: 360d e5bd 665f c9bd f689 a9bc 0ca2 90bd
00000370: 27a6 cabd 9c8c 183e cbf0 3abd fc84 8bbc
00000380: b08e babe e6f9 f9bd 9e22 01bf 6d30 57bd
00000390: 2654 1e3d 8203 abbe 16dd bc3d 0c02 b93d
000003a0: ea18 44be e638 473e eb8d 25be 4069 4c3e
000003b0: c06a 07be bc46 b3bd f56e be3d b09f 1c3e
000003c0: 686c 203a 2f06 aabd 561b 4ebd ddc4 2e3d
000003d0: 6e5c dd3e a2ab f33e bbb8 9c3d 9eae 05be
000003e0: 761e af3d 81bd 60be 3b8b b33d 6b57 03be
000003f0: ffbb c93d f8aa db3e f14f 02bc bbe8 df3d
0.06588341 -0.024994085 0.022532767 0.008323761 0.37683138 0.15010881 0.007349864 0.018437095
0.0085473955 0.060512703 -0.39624107 0.051087715 -0.15668435 0.13310656 0.02482208 -0.07729784
-0.08657892 0.020276304 0.1434046 0.21080697 -0.049003657 0.06930295 0.049046617 -0.1253173
0.009624547 -0.028057212 -0.12099325 -0.15151052 -0.053540777 -0.19689298 -0.13588597 0.015008904
-0.00411377 -0.07313425 -0.17191502 0.077375345 0.15545294 0.050093308 -0.18621981 -0.002449927
-0.10797734 -0.10627204 -0.12917233 -0.2052485 0.07813936 0.27754134 -0.10722829 0.046763524
0.08848929 -0.04772593 0.29010913 0.008199334 0.11420081 -0.05580712 0.1848351 0.029271003
-0.10031682 0.08550677 0.16389202 0.22455332 0.15398715 -0.13193266 0.07086494 -0.047964532
-0.03389519 0.19523501 -0.055428777 -0.055059787 -0.052949622 0.39076984 -0.120570876 -0.10760058
-0.051174782 0.030941006 0.17795491 -0.18119015 -0.055375062 0.23893517 0.061318908 -0.095368095
-0.15391533 0.16798787 -0.037589986 0.005509071 0.0025492911 0.1622956 -0.04081649 0.15633355
0.023873422 -0.018435638 -0.09143312 0.056551762 0.17709397 -0.04390541 0.10727925 0.05606882
0.028767472 -0.17709148 0.24787018 0.10401487 0.036190376 0.008935561 -0.010172552 -0.27256897
-0.16854186 0.18985191 0.056991413 -0.14088543 0.15807475 -0.0026566526 -0.029532911 0.19714604
0.33384636 0.03337345 -0.042813133 0.19131123 -0.24806611 -0.18672733 0.061341815 -0.17744023
-0.12289413 0.11077528 0.042561203 -0.12425551 0.18010971 -0.05889184 -0.13513657 -0.13190533
0.07061543 -0.13606444 -0.03403433 0.104147874 0.10149632 -0.06706888 0.013627765 0.12051137
-0.07114138 0.2622014 -0.13812128 0.28448513 -0.027216846 -0.1822729 0.059510786 -0.08817651
0.21967442 0.07628751 -0.024268314 -0.04283281 -0.1417652 -0.26332483 0.016713277 0.17230457
-0.0580372 -0.15137294 -0.19647218 -0.029905386 0.036373723 -0.11519887 -0.049715802 -0.5628082
-0.01361187 -0.20090389 -0.30582118 0.015925448 0.3186481 -0.14707473 -0.22074653 -0.08858441
-0.051483624 -0.19538845 -0.10007786 -0.09523314 -0.060757164 -0.26730916 -0.055874925 -0.32328102
0.127785 -0.1372593 0.017516715 -0.21491744 -0.18716528 0.016736535 0.06676419 -0.23258437
0.11101289 -0.057061862 -0.10463005 -0.10794652 -0.009258032 -0.15502074 -0.38838205 -0.23105088
-0.039639488 0.055526905 0.13351633 0.05789958 0.10807854 0.017180238 -0.18425299 -0.0790286
0.14185928 0.16100648 -0.08670245 0.22185014 -0.05072643 -0.25331956 0.23465072 0.0664309
0.21727574 -0.038314305 -0.21471004 -0.15795675 0.31667164 0.15606914 0.19277138 0.008576922
-0.111841604 -0.09832649 -0.020695668 -0.07062158 -0.09894972 0.14897388 -0.045639794 -0.017031185
-0.36436987 -0.122058675 -0.50443447 -0.052536417 0.03865447 -0.33401114 0.09221856 0.090335935
-0.19150129 0.19455299 -0.16167419 0.19962025 -0.13224316 -0.08753726 0.09298507 0.15295291
0.00061196694 -0.08301961 -0.05031904 0.042668212 0.4323458 0.47591883 0.07652422 -0.13054892
0.08550732 -0.2194729 0.087667905 -0.12826316 0.098503105 0.42903876 -0.00795363 0.10933062

hiddenlay.6.bias f4 [140]
00000000: 0bb3 24bd 6e33 b4bd d86b 6abd 466a 64bd
00000010: 2510 acbc e2b9 1fbd f77a 28be 5c6c a33d
00000020: 8bf7 443d a13d 43bc 4acd 93bd 8e8c 52be
00000030: 0298 0f3d 3110 e3bd c92f 31bd a2e1 d53c
00000040: 2d16 e1bc 2ab7 1b3c a552 36bd 5baf 88bd
00000050: d9e6 cfbd efe1 0c3c 1dd6 c83d 251b 5cbe
00000060: 7c3e d3bd c1de d0bd f64b ce3c 870d ebbc
00000070: dc08 913d 1cfe 033e 141b 74bb c73b d8bd
00000080: f552 49be 7790 bbbd 2a87 223d 0a52 9ebb
00000090: 2573 b1bd c941 6a3a c8ea 793d cea1 47bd
000000a0: e80d 9dbd a6f5 79bb 3f8a 1e3d 7677 d23d
000000b0: 3082 feba 75a0 2ebe 9b95 0bbd b7d2 c0bc
000000c0: 790b a4bd 9dcd 323c 12a2 b43c c3a7 903d
000000d0: 7d0d 90bd a3df 923c e757 86bc 17c2 53bb
000000e0: 30a0 b33c 5140 923d 9403 93be f59f 0b3d
000000f0: f00b 90bd 6900 14bd 9028 7ebd e7da 6fbd
00000100: b044 4f3d abbd 0bbe 9518 1b3d 75da 0abd
00000110: 04ea e9bc cee4 27be 623c c43d 1e35 c4bd
00000120: e002 1ebe b7c6 bf3d 88bb 623c 8a38 b3bd
00000130: c22f 883c 28f0 babd 26d6 3dbe 83a5 25be
00000140: 0eed 883c 0853 d4bd c6db edbd b9e8 6abc
00000150: 26de 76bd 4052 61bd f540 a9bd 1ffc 92be
00000160: 9e70 fbbd 77a4 ecbd 7fa4 04be a496 96bd
00000170: 3bea 21bc 7433 bebc 9594 c93c 9f5c 2dbe
00000180: 29dc afbd 889b 63bc fee0 64bd 1e87 1ebd
00000190: 080e c0bd 8081 43bd ff04 bf3c 6d8d 76bb
000001a0: d56a 453c 2ced c8bd ede7 403d 8db4 36bd
000001b0: c98c 00be 630a 65bd ac6a ab3d 85b5 c3bd
000001c0: 819d 8bbd 278a 56bd 445b dc3d 38f2 51bd
000001d0: 5c21 dc3d 4d11 dcbd 7ab1 673d d210 b53d
000001e0: b8e9 e83c 3988 873c 437e 0ebd 9399 913c
000001f0: 74de 13bd 48ea 913b 7717 b63d 6399 11be
00000200: a90f e6bc c25f 633c 09c6 e5bb 7886 45bd
00000210: ea10 933b f0a3 10be b573 26bd f04d 9bbc
00000220: 4b16 803d 326d 85bd af1d babd 66f5 60bd
-0.04020981 -0.08798872 -0.057231754 -0.055765413 -0.021003792 -0.03899563 -0.16453157 0.07979652
0.048087638 -0.011916549 -0.0721689 -0.2056143 0.035057075 -0.11087073 -0.043258462 0.026108567
-0.027476395 0.009504119 -0.04451241 -0.066740714 -0.101514526 0.008598789 0.09806464 -0.2149473
-0.10314652 -0.10198737 0.025182705 -0.028692974 0.07081768 0.12889904 -0.0037247585 -0.105582766
-0.19660552 -0.09158414 0.039679684 -0.004831557 -0.0866454 0.00089361944 0.06101492 -0.048738293
-0.07668668 -0.0038140803 0.03870606 0.102766916 -0.0019417461 -0.17053397 -0.03407822 -0.023537977
-0.08010001 0.01091328 0.022049937 0.07063248 -0.07033823 0.017928904 -0.016399337 -0.0032311731
0.02192697 0.07141174 -0.28713667 0.034088094 -0.07033527 -0.036133204 -0.062050402 -0.05855837
0.050602615 -0.13646571 0.03786524 -0.033899743 -0.02855397 -0.16395876 0.095818296 -0.09580444
-0.15430784 0.09364074 0.013838656 -0.08751018 0.016624335 -0.091278374 -0.18538722 -0.16176419
0.016714599 -0.103673995 -0.11614184 -0.014337712 -0.06027045 -0.05501008 -0.08264343 -0.28707978
-0.122773394 -0.11554807 -0.12953375 -0.07352951 -0.009882505 -0.023217894 0.024606982 -0.16929863
-0.08586914 -0.013892062 -0.05587863 -0.038703077 -0.09377676 -0.047730923 0.023317812 -0.0037620917
0.0120493965 -0.09810862 0.04709618 -0.04460578 -0.12553705 -0.05591811 0.083699554 -0.095561065
-0.06817151 -0.052377846 0.10759595 -0.05125639 0.1074855 -0.10745487 0.05656574 0.08841099
0.028431758 0.016544448 -0.03478838 0.017773425 -0.03610082 0.0044529773 0.08891194 -0.14218669
-0.02808364 0.013877811 -0.007012133 -0.048223943 0.0044881003 -0.14125037 -0.04063769 -0.018958062
0.06254252 -0.06514968 -0.09087693 -0.05492153

hiddenlay.8.weight f4 [170, 140]
00000000: 1bb2 5c3d f62f 57bd b8b9 863e 5848 8d3d
00000010: d8a3 e73b 8fff 1a3e 82c5 ca3c 82da 74be
00000020: 1f18 6fbe dff2 30bc fd7f 47be ad07 77be
00000030: 5f2f a03e 3640 a93d eda5 dbbd 38b3 00bc
00000040: b70a 6abc 470d fabc 6cc3 d93d c45f cf3d
00000050: 0b97 563c c1c4 213d e236 dbbd 0b74 343d
00000060: 4841 ee3c e9a6 3b3e 085f 46be 723f 783e
00000070: e22c 913d a9c9 c23d a5f6 e13d 079c 683d
00000080: d383 66bc e7f4 de3d e439 47bd 6cfe c83d
00000090: f37d 273d e0ce 5dbe f892 7bbc 86a1 4fbc
000000a0: e0b8 8bbd 7515 d2bd 5857 adbd a1a8 15be
000000b0: 84ee cf3d b272 bfbd 55a4 2dbd 1e05 6339
000000c0: ef29 f83d 751f 8abd 5626 4b3e e5f2 183d
000000d0: fba4 3dbc 4b0b a3be b2e4 f33d 87e1 a03d
000000e0: 5139 0e3d dfe3 72bd ef42 1ebd aa6e 9a3d
000000f0: 6b4a a1bc 9d81 1c3d 2b32 6bbc 168f b2bd
00000100: 9938 b8bc 632a 10bd ad02 05be cf71 ff3d
00000110: f0fc bb3d 2dd8 5ebe ee89 c33c 8ff2 1e3e
00000120: af1f 27be 5c66 bfbd ef6a abbd b780 233e
00000130: 5016 40be a92c b03d f89f 12bd e4cc 7e3c
00000140: f725 3cbe 165a 853d 0094 803d ba2a a7bd
00000150: c6f4 7b3e b1f6 3f3d 24e9 89bd 3379 e2bb
00000160: a8a0 533e 27f5 593e 7a06 7a3d 4d8b 403e
00000170: eaa6 9fbc 4e05 113e a5a7 e4bb e14a c63d
00000180: 5253 873c cfd4 92be 8132 943d 63d7 f8bd
00000190: 2340 173e 0821 26be b24b 3abe 7eab 973c
000001a0: 5da1 e8bd ec03 adbd 9b5b 603d 81fe 24bd
000001b0: cc7e 2d3d 5f4d 923d edde 57bd f264 11bd
000001c0: 87bb 423d de04 14be a7a6 ccbd adb4 343d
000001d0: d8f8 423c c953 14bd 881b e1bd def9 4a3d
000001e0: a29d 603b 9399 48bd 7c9a 6539 65c1 f33d
000001f0: e68f 4dbd 9b3e ab3e bb49 f33d efd2 593e
00000200: b481 babd 92db 9d3d a114 1c3d ee83 0a3e
00000210: ded4 003d a58a 1abe 6214 41bb f0b1 123e
00000220: fe59 873e bf4b 3e3e ad3f 5dbd 364d f2bd
00000230: e6cf 233d ede1 a7be 26cc 16be aadb 95be
00000240: 05b6 97be c904 b13e 9835 61be 0550 c4bc
00000250: 92da 98be a661 7b3d 4ea8 2abc aa9a 303d
00000260: b6ca 17be 70b3 8bbe 45b9 5f3d 8370 da3d
00000270: a606 143e 44e6 b23d 1395 033e 3165 3e3e
00000280: 94ba a8bc 568d 8abd fa98 1c3e dafb 383e
00000290: d7cd df3c 831e 07bf 88e0 023e 8182 aebd
000002a0: f989 81be 915f 793d 36a6 0e3d 478e bc3e
000002b0: e815 0d3e 3aa1 ae3d 0842 85bd c52e 9cbe
000002c0: 3420 75be c0db 87bc 8c67 f5be 11a3 46be
000002d0: 7126 a73c ed7c 8a3c 3885 47bc 0d32 803c
000002e0: a36d 3abd 6d14 fabe 3034 72bd 4034 f8be
000002f0: 742f 89bd 206a bcbe acf3 5439 b93f c63c
00000300: 10bf cebd a752 1c3e 872d 26be 39de aa3e
00000310: 87a0 80be 7676 79be deec 76bc 291e 073d
00000320: 544c 053f 3675 83be c0fd 9e3d e629 57bd
00000330: 2976 2b3e 2505 1fbc fe6f 71be 15a5 b4bc
00000340: fbb9 d4bd 119d 0f3d 6fd4 ad3c 0773 c03d
00000350: 5ce6 59be eac8 7fbd 3388 ff3d ea90 b2bd
00000360: 7250 a0bc 2bba 15bd abe4 5dbd c204 6bbc
00000370: 8a75 0b3e eb06 a1bd f84f e1bd ae94 20bf
00000380: 8ef5 053e 4f98 bd3c b93e 49be 1995 edbd
00000390: 9f1e b3bd 3867 f9bd 0754 853d e157 ff3c
000003a0: 420f c73e e5c4 ee3c 8815 933d 13b5 253c
000003b0: 5c38 64be 51b5 cf3d b46a b5be 28ce 46bd
000003c0: 3d0d b23d 7d1f 9f3e 5621 e4bd 5f81 93bd
000003d0: a030 733e 3c8f 8c3d add3 cf3e 572a c23e
000003e0: 101f 8fbd 2e95 e2bd a14d af3c 95d7 993e
000003f0: 15f3 33be 7d7c 01bf c93e 93be 68f1 96bd
0.053880792 -0.052535973 0.26313567 0.06898564 0.0070690922 0.1513655 0.024752382 -0.23911479
-0.23349045 -0.0108000925 -0.19482417 -0.24124022 0.3128614 0.082642004 -0.10725007 -0.007855229
-0.014284781 -0.03052391 0.10632977 0.10125688 0.013097535 0.03949428 -0.107038274 0.04405598
0.029083863 0.1832539 -0.19372189 0.24242952 0.07088639 0.0951112 0.11033372 0.056789424
-0.014069515 0.10886555 -0.048639193 0.09814152 0.0408916 -0.21660948 -0.015354864 -0.0126727875
-0.068223715 -0.10257999 -0.08463925 -0.14615108 0.10152915 -0.09348048 -0.042393047 0.00021650313
0.12117373 -0.06744281 0.19838843 0.037341017 -0.011574979 -0.31844553 0.119088545 0.07855516
0.03472263 -0.059299346 -0.03863805 0.07540639 -0.019688806 0.038209546 -0.014355223 -0.08718698
-0.022487925 -0.035196673 -0.12989302 0.12472879 0.091791034 -0.21762152 0.023869481 0.15522216
-0.1632068 -0.093456954 -0.08370005 0.1596707 -0.18758512 0.08602268 -0.03579709 0.015551779
-0.18373857 0.06511323 0.06278229 -0.08162446 0.24605092 0.046866123 -0.06733921 -0.0069114207
0.20666754 0.21284924 0.061041333 0.18803139 -0.01948877 0.1416218 -0.0069779926 0.09682251
0.016519222 -0.28677985 0.07236195 -0.12150457 0.1477056 -0.16223538 -0.18192938 0.018514391
-0.113589026 -0.08448014 0.05477486 -0.040281776 0.04235725 0.071436636 -0.052702833 -0.03549666
0.04754212 -0.14454982 -0.09992724 0.04411762 0.011900149 -0.036212716 -0.10991579 0.0495547
0.0034273644 -0.048974585 0.00021896692 0.119021215 -0.05018606 0.33446202 0.11879297 0.21271871
-0.0910677 0.07707895 0.03810561 0.1352689 0.031453006 -0.15091951 -0.0029461612 0.1432569
0.26435846 0.18583582 -0.054015804 -0.11831133 0.03999319 -0.32789555 -0.14726314 -0.29269153
-0.29631057 0.34573963 -0.219931 -0.023963938 -0.29854256 0.06137242 -0.0104161035 0.04311625
-0.14823422 -0.27285337 0.054620046 0.10665991 0.14455661 0.08735326 0.12849836 0.18593289
-0.02059678 -0.06765239 0.15292731 0.18064824 0.027319832 -0.5278093 0.12780964 -0.085209854
-0.25300577 0.060882155 0.03482648 0.368273 0.13777888 0.08526845 -0.06506735 -0.30504432
-0.23938066 -0.016584277 -0.47930562 -0.19398142 0.020404072 0.016905272 -0.012177758 0.015648866
-0.045514714 -0.4884371 -0.0591318 -0.48477364 -0.06698504 -0.36799717 0.0002030867 0.024200307
-0.10095036 0.15265904 -0.16228305 0.33372667 -0.25122473 -0.24361596 -0.015071122 0.032987747
0.5206959 -0.25675362 0.07763243 -0.05253019 0.16744293 -0.009705816 -0.23577878 -0.022051373
-0.103870355 0.0350619 0.02121946 0.0939694 -0.21279281 -0.062447466 0.1247715 -0.087190464
-0.01956961 -0.036554497 -0.054173153 -0.014344396 0.13619056 -0.078626476 -0.11001581 -0.6272687
0.13081953 0.023143915 -0.19652833 -0.11600704 -0.08746075 -0.121778905 0.065101676 0.031169834
0.38878828 0.029146621 0.07181841 0.010113972 -0.22287124 0.10142005 -0.3543297 -0.04853645
0.08693931 0.3107871 -0.11139171 -0.0720241 0.23749018 0.06863257 0.40591183 0.37922928
-0.069883466 -0.1106361 0.021399321 0.3004729 -0.17573197 -0.5058058 -0.2875884 -0.07370263

hiddenlay.8.bias f4 [170]
00000000: 917c 97bd 0579 51bd 9228 c83d fd56 6bbe
00000010: c0f6 41bd b05e febd 1a96 763b 1fae de3c
00000020: a3a0 53be 84ad 253c 4d95 ae3b 96ee 073d
00000030: 4b10 46bd f455 98bd 36da 1abd 3f27 833c
00000040: b56b d4bd 438b cc3b f54b 26bc 7202 f0bc
00000050: e09a 463d 32ce d33c 8dd9 9d3b 89c9 b93c
00000060: 108a 2bbe bfc0 d03d fae7 7fbe 239d 93be
00000070: 6acd 9b3b b303 46be 1677 33be 0d64 61bd
00000080: 4888 c0bc 4b96 bd3c 77a2 74bd bfa3 08be
00000090: 95b9 32bb d8ed 4abd c8bb cebd 8226 3fbd
000000a0: f9d8 91bd 1ddb c5bd 408d d0bd 82d9 18bd
000000b0: 920e bebd 2044 e93d f158 e4bd 594e 39be
000000c0: 9dc2 0fbe 3f46 91bd 98ed 15be 49e7 f5b9
000000d0: 1fcc 31be c395 f4bc 4783 37bd 62eb 8abc
000000e0: 27ec b8bd e4b0 c5bd 4f6d b6bb 0b4d 11bd
000000f0: fb47 4abe 4b3e 92bd eaf6 e13d 4db1 7cbc
00000100: 0488 833d 83c3 6dbd e17a 223d f3cd 03be
00000110: d5aa aebd 3ab0 25ba 0e86 25bd a3c6 21bd
00000120: df37 be3a e295 d3bd ae13 823d c653 a7bd
00000130: 58af 08be 6fda 263c d99a 81bd f1c5 d1bd
00000140: d5c6 563d 218c 27be bb61 03bc 7525 8abe
00000150: 4270 97bb 3af1 d7bd d500 04bc 2683 16bd
00000160: 4404 00be 33e6 483d d431 e4bd ab0a 953c
00000170: 9cb1 f5bd ce8e 84bc ad37 94bc e9dc 65bc
00000180: 8c6c 09be d9a4 123d c3b1 cabd 7443 dfbc
00000190: 56d0 17bd 443a 03be 3c6c b3bd 0f98 e3bd
000001a0: a3e2 e73c 083f 09bd 7391 ebbd 67cf bfbc
000001b0: bbad 04bd b204 b6bd bf17 09be 3704 82bd
000001c0: d540 e1bd 850b a9bd 7a0c 043e c930 a3bd
000001d0: 0e18 babc e810 973c 6a28 173d adc1 5fbe
000001e0: 72a0 3fbe 4759 913d f630 753c c0f2 44bd
000001f0: d135 91bd a2cb 44bd 4fd1 a6bd 4f06 5fbd
00000200: 71b5 cdbd 813c 4ebe d8ef a8bd 9825 93bd
00000210: 868f 08be f02e e1bc 69fb a83b 8106 bcbd
00000220: 5bea c2bc 3226 1f3d c4de cc3d a018 9cbd
00000230: 53fe 383d 03d3 293d 14a7 76bd d692 c5bc
00000240: 46ce e0bb 4351 823d bf59 b43c 4f8b 4dbb
00000250: f4f5 1e3d 1edd 303d 9152 e3bd 7ec1 7f3c
00000260: fe62 32bd 5baf 273c 3225 02bc b081 5dbd
00000270: a4bf 8bbd 0749 05be f136 5b3d 9e21 8abd
00000280: 1522 32be ce1f 88bd d80a efbd d21e c53d
00000290: 1511 5fbe 909a 44bc f5e8 a63c 6cd0 a03a
000002a0: 73f7 cebd 5bb6 4abe
-0.07396806 -0.051140804 0.09773363 -0.22982402 -0.04735446 -0.12420404 0.0037626089 0.027182637
-0.20666747 0.01011217 0.0053278566 0.033186518 -0.048355382 -0.07438269 -0.03780576 0.016009925
-0.10372106 0.006242187 -0.0101499455 -0.029298041 0.048487544 0.025855158 0.004817194 0.022679107
-0.16751885 0.101930134 -0.24990836 -0.28830823 0.004754712 -0.19337349 -0.17525896 -0.055027056
-0.023502484 0.023142954 -0.05972525 -0.13343714 -0.002727126 -0.04954323 -0.1009441 -0.046667583
-0.071214624 -0.09660933 -0.10183191 -0.037316807 -0.09280123 0.11389947 -0.11149777 -0.18096294
-0.14039083 -0.070934765 -0.14641416 -0.00046902362 -0.17363022 -0.029856568 -0.04480293 -0.016957942
-0.090294175 -0.0965288 -0.00556723 -0.035473865 -0.19754021 -0.07140788 0.11033423 -0.015423131
0.06422427 -0.058047783 0.039667968 -0.12871532 -0.085286774 -0.00063205103 -0.040411048 -0.039496075
0.00145125 -0.10331322 0.0635141 -0.081702754 -0.13348138 0.010183915 -0.06328363 -0.102428325
0.052435715 -0.16362049 -0.008018906 -0.26981702 -0.0046215365 -0.10544057 -0.008056839 -0.036746167
-0.12501627 0.04904766 -0.111423165 0.018193563 -0.11996767 -0.016181376 -0.018092955 -0.01402972
-0.13420314 0.035801742 -0.098971866 -0.027253844 -0.03706392 -0.12815195 -0.087608784 -0.11112987
0.028306311 -0.033507377 -0.115023516 -0.023414327 -0.032392245 -0.08887614 -0.13387965 -0.0634846
-0.10998694 -0.0825415 0.12895384 -0.079682894 -0.022716548 0.018440679 0.036903776 -0.21851225
-0.18713549 0.070971064 0.0149652865 -0.048083067 -0.07090343 -0.048045762 -0.08145391 -0.054449376
-0.10044373 -0.20140268 -0.082488716 -0.07184905 -0.13336 -0.027488202 0.0051569236 -0.09180928
-0.02379339 0.038854785 0.10003427 -0.07621884 0.045164417 0.041461002 -0.060217932 -0.024117868
-0.006860527 0.06363156 0.02201545 -0.0031363552 0.038808778 0.043179624 -0.11099733 0.015610097
-0.043551438 0.010234679 -0.007943438 -0.054078758 -0.06823662 -0.13016139 0.053519193 -0.06744693
-0.17395814 -0.06646691 -0.1167199 0.09625019 -0.2178386 -0.011999741 0.020374754 0.0012269146
-0.10105791 -0.19796126
